src/SSL/pretrained/geometric/model_g.pth (torch, 935392 bytes, 18 tensors)

input_proj.weight f4 [64, 15]
000000 5e 63 34 3d 46 82 4b be 8e 32 4a be 92 ef 1b be
       0.044040076 -0.19873914 -0.19745848 -0.15228108
000010 0b 28 49 bc de 61 22 be 47 4f 16 be 65 4b 57 bc
       -0.012277613 -0.15857646 -0.1467868 -0.013140534
000020 dc d0 58 be 2d f4 3a 3e d2 51 a2 3c fa 29 30 3e
       -0.21173424 0.18257208 0.019814406 0.17203513
000030 5d 4f 2a 3e 26 ff aa 3d 63 ed 81 bd 16 28 35 be
       0.16631837 0.08349447 -0.06344106 -0.17691073
000040 cf c6 1a 3e ea f0 07 3e 27 2e 8c 3d c0 94 a8 3d
       0.15114902 0.13275495 0.0684474 0.08231497
000050 1b a1 ff 3d f8 48 50 bd dd 97 5f 3e e4 1e 28 be
       0.124819 -0.05085084 0.21835275 -0.16418034
000060 d4 3b 03 3e 23 ed c8 3c b4 ea 59 bd 49 d2 ca bc
       0.12815791 0.024527138 -0.053202346 -0.024758475
000070 65 de 1e 3b 19 2f 3f 3e 21 28 50 3d e3 4c 57 3e
       0.0024241444 0.1867031 0.05081952 0.21025424
000080 e3 b7 e6 3d 76 9d 87 3d 3f 01 81 3e 25 e1 09 3e
       0.11265542 0.0662183 0.25196263 0.13464792
000090 cc 65 00 3e 78 1a 25 3e f5 81 3c 3e ef a3 ab 3c
       0.12538832 0.16123378 0.1840895 0.020952193
0000a0 59 1d 61 3e 04 45 c2 bd e0 ac 5e be ff fd a9 3d
       0.21983851 -0.0948582 -0.21745634 0.08300399
0000b0 45 f7 b5 bd 3a 6e 6c bd 62 0e 58 3c 45 10 3b bd
       -0.088850535 -0.057722308 0.013187023 -0.045669813
0000c0 4c 68 61 be 5d 8e 9a bd c5 f0 e7 bd 41 e9 28 be
       -0.22012442 -0.07546685 -0.1132522 -0.1649523
0000d0 0c c7 4a be 80 47 dc 3d 53 e6 18 3e 0b 50 20 3d
       -0.19802493 0.10755825 0.14931612 0.039138835
0000e0 42 5e 18 be 28 d6 1b 3e 86 08 2e be 71 1d 11 3e
       -0.14879707 0.15218413 -0.16995439 0.14171387
0000f0 c5 ff 03 3e a0 f7 0f be ff 7c 03 3e 37 e7 ce 3c
       0.12890537 -0.14059305 0.12840651 0.025256736
000100 d8 8e 7c 3e 09 f3 de bd 25 4b 55 be 7b 92 01 3e
       0.24663866 -0.10886199 -0.20829447 0.12653534
000110 6b b1 60 3d 4f 38 4e 3e 48 f8 03 be 1a ef 5b 3e
       0.0548567 0.20138668 -0.1288768 0.21477929
000120 54 24 85 be 55 22 7a 3e 4e 0a 13 3d 8d 77 ce 3d
       -0.2600428 0.24427159 0.0358985 0.10081396
000130 a7 25 33 3e b2 02 d4 bd 2c 5a 55 be 2c 36 3c bd
       0.17494832 -0.103520766 -0.20835179 -0.0459501
000140 5d 6c e8 bc 81 29 67 bd 52 e3 fb 3d 19 49 4d 3e
       -0.028371984 -0.056436066 0.12299217 0.20047416
000150 d9 9f 6b 3d 73 1a 10 3d 80 8d b5 3d ba dc 91 3d
       0.05752549 0.035181474 0.088648796 0.071221784
000160 fc 16 5d bd 4e ee 17 bb 8d 27 0d be da a0 6b be
       -0.053976998 -0.0023182812 -0.13784619 -0.23010579
000170 49 1c 6c 3e 53 de 11 be b1 49 22 be 34 05 b5 bd
       0.23057665 -0.14244966 -0.15848424 -0.08838883
000180 af 6d 5d be 8f c7 2a 3e 22 bb 14 bd 6f ef 52 be
       -0.21623872 0.16677688 -0.036311276 -0.20599149
000190 a8 7f 8f bd 6b fa 17 be 71 2b 5b 3e ad f0 4d 3e
       -0.0700677 -0.1484162 0.2140329 0.20111342
0001a0 f4 98 71 be 0c 40 ec bd 7b fe 0c be fd 3e 7b be
       -0.23593503 -0.115356535 -0.13768952 -0.24535747
0001b0 72 a5 1a 3d c4 b5 b1 3d 36 4d 3f be 45 79 5c be
       0.037755437 0.08677247 -0.18681797 -0.21530636
0001c0 30 c4 2b be 82 f8 14 bd 34 80 71 be 8a 13 6f 3d
       -0.16774058 -0.036369808 -0.23584062 0.058368243
0001d0 ef bf 59 3e ba ef 04 bc 6b 52 4b be 7a 7e 39 be
       0.21264623 -0.008113796 -0.19855659 -0.18114653
0001e0 5f 9c 2a 3e f6 93 1c be 72 35 30 3d 14 07 19 3d
       0.16661213 -0.15290818 0.04301972 0.037360266
0001f0 37 2d 48 3e 66 2b 01 3e 41 71 2a be 21 f1 16 bd
       0.19548498 0.12614211 -0.16644765 -0.036851052
000200 a0 3a 3e 3d f0 25 51 be 03 26 3d be f7 9d 83 3e
       0.046442628 -0.20424628 -0.18471532 0.25706455
000210 26 6a 79 be ec 49 02 be 92 59 84 be c1 79 82 3b
       -0.24356899 -0.12723511 -0.25849587 0.0039817994
000220 96 e3 17 3e 2a 8e 3a 3e 8f 94 11 3d f8 cc e2 3c
       0.14832911 0.18218294 0.035542067 0.027685627
000230 f2 4a 46 3e 4e 6e 2e 3e 2e a8 9c 3d a8 08 cd bd
       0.19364527 0.17034265 0.07649265 -0.10011417
000240 92 cb 13 bd 02 51 33 be a2 d0 74 be a1 3b 17 3e
       -0.03608281 -0.17511371 -0.23907712 0.1476884
000250 cc d6 29 3e a4 31 f7 3d 1a 8c 3c be f0 a1 14 be
       0.16585845 0.12070015 -0.1841282 -0.14514899
000260 15 83 24 be 07 77 a1 bd e5 59 68 be c2 29 37 be
       -0.16065629 -0.07884031 -0.22690542 -0.17887023
000270 61 02 4d be fc 1f 27 3e 2b e4 fa bd b3 0f ba 3d
       -0.20020439 0.16320795 -0.12250551 0.09085026
000280 29 38 bd 3d 4f 1c aa bd b4 3b 58 3e b2 7a a9 3c
       0.09239227 -0.08306181 0.21116525 0.020688388
000290 e4 1b 85 3d ef 0e 65 3e b5 61 e0 bd 9e 38 80 be
       0.0649946 0.22368978 -0.10956136 -0.25043195
0002a0 a2 8d 17 bc dc c3 64 be 38 ff 1b bd dc ae 63 3b
       -0.0092500765 -0.2234034 -0.038085192 0.0034741675
0002b0 a4 79 72 3e 8a cc 3b 3d da b3 24 3e 48 18 00 bb
       0.23679215 0.04584936 0.16084233 -0.0019545723
0002c0 0e 26 04 3e 56 38 02 3e e1 90 43 3e a8 a9 be 3d
       0.12905142 0.12716803 0.19098236 0.09309703
0002d0 21 7d a0 bd 3b 26 65 be 7f 53 0c be 57 53 6a be
       -0.078363664 -0.22377865 -0.13703726 -0.22883354
0002e0 31 b0 03 be 94 22 db bd ea b8 84 3d 24 d2 77 be
       -0.1286018 -0.10699955 0.06480582 -0.24201256
0002f0 e0 8b 60 3c 3e 8c 03 3e 69 0d 32 be c3 e4 f1 3d
       0.013705224 0.12846467 -0.17387928 0.11811211
000300 0c 35 62 3e a7 01 99 3d 9b 51 cb bc c5 8d 83 be
       0.22090548 0.07471018 -0.024819186 -0.256941
000310 32 6f 4b be af 34 2e be 29 80 4c 3e 7a 30 30 be
       -0.19866636 -0.17012285 0.19970764 -0.17205992
000320 94 6c 3a 3e 1b 77 35 3e 3c a6 5d be 20 b0 7c 3e
       0.18205482 0.17721216 -0.21645445 0.24676561
000330 8c b9 31 bd 1b b8 cd 3d 92 af cf 3d 4e 18 6b 3e
       -0.043389842 0.10044881 0.10140909 0.2295849
000340 e6 6f 28 bc 7d d9 58 bc 25 bf 68 3e 19 c5 97 3c
       -0.010280585 -0.013235447 0.22729166 0.0185266
000350 04 f5 4e 3d b5 91 b8 bc 89 04 a5 bd 6a e7 7c be
       0.050526634 -0.022530416 -0.08057506 -0.24697652
000360 09 a9 e4 3b 9c 91 d8 bd b6 6d 3f bd 77 38 47 3e
       0.0069781584 -0.10574648 -0.046735488 0.19455133
000370 5b 70 31 be ca 7e d3 bb 49 36 dd bd 76 8f 6f be
       -0.17328016 -0.0064543234 -0.1080137 -0.2339457
000380 88 82 3f 3d df d5 5d bd 48 74 aa 3d 42 02 7c 3e
       0.046755344 -0.05415904 0.0832296 0.24610236
000390 94 f2 b9 bd 84 16 53 3e 20 7e ae bd 74 84 7b be
       -0.09079471 0.20614058 -0.0852015 -0.24562246
0003a0 4f 5c 3f 3e b3 ed c0 3d 04 3c 90 bc 88 6a 3b 3e
       0.18687557 0.094203375 -0.017606743 0.18302357
0003b0 5c 7e 28 be c5 27 ca 3b 21 e8 7b 3e a1 55 25 3e
       -0.16454452 0.0061692917 0.24600269 0.16145946
0003c0 88 05 d2 3d 4b 78 7a be 69 6d a4 bd 92 51 29 bd
       0.10254961 -0.2445995 -0.08028681 -0.041337557
0003d0 f7 b9 f6 3d fe a4 49 3e a5 30 e9 3c eb a2 36 be
       0.12047189 0.19691846 0.028465578 -0.17835586
0003e0 c7 ec 1c be f3 81 e1 bc 38 71 45 be d0 aa a5 bd
       -0.15324698 -0.027527785 -0.19281471 -0.080892205
0003f0 47 85 7e 3e f2 98 ee bd b2 20 60 be 3b d8 c3 3d
       0.24855529 -0.11650266 -0.21887472 0.09562727

input_proj.bias f4 [64]
000000 30 de 61 be 0e 22 5e 3e 23 fb 13 3e a9 8f 21 3e
       -0.22057414 0.21692678 0.1445127 0.15777458
000010 00 99 2f 3d 8f de 0d 3e be a5 da 3c c3 31 1a be
       0.04287052 0.1385443 0.02669036 -0.15058045
000020 c4 29 be 3d e7 8a b6 3c ca cd 4b be 07 4a 66 be
       0.0928531 0.02228303 -0.19902721 -0.22489177
000030 ab 70 a5 3d 85 7a 83 bd 39 47 f9 3d bd 53 ac bd
       0.0807813 -0.06419853 0.12171788 -0.08414409
000040 63 a1 54 bd a3 6c 81 bc 87 39 58 be 0d 7f 58 be
       -0.051911723 -0.015798872 -0.21115695 -0.21142216
000050 40 65 53 be 7c 23 70 be a3 20 48 3e e6 92 07 3e
       -0.20644093 -0.23451036 0.195437 0.13239631
000060 d3 26 87 3d 9e a3 3c be 4c 5a 3a 3b a9 53 bb 3d
       0.06599202 -0.1842179 0.0028435169 0.09146816
000070 73 08 49 bd 1f b0 a7 3d ff d2 99 3d 72 e9 e4 3d
       -0.049080323 0.08187889 0.075109474 0.11177339
000080 85 77 6a be bd bf 2d be 9b 08 f3 bd 23 9b 31 3e
       -0.22897156 -0.16967674 -0.11866876 0.17344336
000090 dc d4 80 3e 58 cf 38 3e de 21 70 3e 5b 3b 78 3b
       0.251624 0.18047845 0.2345042 0.0037877175
0000a0 93 82 d1 bd ed f1 3c 3e 28 4f 92 3c 05 c7 05 be
       -0.10229983 0.18451662 0.01786001 -0.13064201
0000b0 58 59 1c 3e 13 c7 16 3e 26 84 07 bd af 11 ed 3d
       0.15268457 0.14724378 -0.03308501 0.115756385
0000c0 5d 0f d7 bd 98 02 5b 3e 57 2b 2a 3e 29 2a 30 be
       -0.10500977 0.21387708 0.16618095 -0.17203583
0000d0 c1 a8 8d 3d 4f d4 74 be f6 b1 0e 3e da bb 95 b8
       0.06916953 -0.23909114 0.13935074 -7.139864e-05
0000e0 19 8d 80 3e ec 08 cc bd c9 13 0d 3e d5 c7 5b 3e
       0.2510765 -0.09962639 0.13777079 0.21462949
0000f0 45 36 2b 3d 73 eb 75 bb 4f 70 39 3e 7f 07 3b 3e
       0.041799802 -0.0037524372 0.18109249 0.18264578

transformer_encoder.layers.0.self_attn.in_proj_weight f4 [192, 64]
000000 1e 69 03 3e 98 44 d5 bd 1b c1 4a bd 1a 47 33 bc
       0.12833068 -0.10413474 -0.049500566 -0.010942245
000010 de 80 07 be 2f 11 db 3d b8 d2 d5 bd 35 4d 16 3d
       -0.13232753 0.10696637 -0.10440582 0.036694724
000020 27 88 a0 3c 64 0b f4 bd 28 37 fd 3d 7b 0d e3 3d
       0.019596172 -0.11916235 0.12364036 0.110865556
000030 3a 33 8e 3d 97 fa a2 3d c4 16 24 bc e2 b2 76 3d
       0.069433644 0.079579525 -0.010015193 0.06022919
000040 59 de 08 3e df d0 15 3e 32 05 bf 3a 3c cf d6 bb
       0.13366069 0.14630459 0.0014573692 -0.006555466
000050 fe 81 d0 bd 3c 3e 6c 3d 93 76 b1 3d 88 c7 91 3d
       -0.10181044 0.05767654 0.08665194 0.07118136
000060 72 08 19 be 29 23 19 3e 50 0e 1a 3e 5b 54 b3 3c
       -0.14944628 0.14954819 0.15044522 0.02189081
000070 b8 21 c8 3c 7b b4 0e 3e d3 94 e5 3c 46 ea cf 3d
       0.02443014 0.13936035 0.028025066 0.10152106
000080 c1 93 be 3d 02 91 12 3e 29 a0 48 3d d3 46 d5 3d
       0.093055256 0.14313129 0.048980866 0.10413899
000090 b3 8c ca bc 88 ef 80 bd bd ca 79 3d 65 31 b6 bd
       -0.024725294 -0.06295687 0.060984362 -0.0889614
0000a0 12 b9 a8 3d 68 58 94 3d 7f 3b 3f bd 28 86 13 3e
       0.08238424 0.07243425 -0.0466876 0.14406645
0000b0 fe 2d 53 bd 8f f4 03 3e 27 d3 2c 3d 72 31 87 3d
       -0.051557533 0.1288626 0.042193558 0.06601228
0000c0 55 4c df bd 29 cc c9 3c 5d a0 11 bd 0f b4 32 3d
       -0.10903231 0.024633484 -0.035553325 0.04362875
0000d0 30 69 d2 3d 8c 19 88 3d 48 be fd 3c e6 f1 09 3e
       0.10273969 0.06645498 0.030974522 0.13471183
0000e0 5a 11 8f 3d 32 75 97 bd 77 27 30 3d 21 88 04 3e
       0.069857314 -0.073954 0.043006387 0.12942554
0000f0 45 0e 46 bc e7 a1 b9 bd 46 e5 e9 3d b4 26 05 be
       -0.012088363 -0.090640835 0.114206836 -0.13003045
000100 73 a0 fd 3d d9 d4 02 be b4 1e 18 be 05 89 d2 3d
       0.12384119 -0.12776507 -0.14855462 0.10280041
000110 e4 10 7a bd ae 90 90 bd b9 0f b0 bd cd ec ca 3d
       -0.061051264 -0.070588455 -0.08596749 0.099084474
000120 50 5e d6 bd 1d 27 1a be 16 2a 4d 3d ad 75 ff 3d
       -0.104672074 -0.15053983 0.050088964 0.12473617
000130 6e 36 e0 bc e1 5f ec bd 6d a0 76 3d 82 a2 13 3e
       -0.027369704 -0.11541725 0.060211588 0.1441746
000140 cd 6e 16 3d 62 c5 e4 bd 40 3e 2d 3d b3 0d 0c 3e
       0.03672676 -0.1117046 0.042295694 0.13677101
000150 af 66 2f 3d dc 96 9e bd 96 12 71 bd 49 ae 9a bd
       0.042822536 -0.07743618 -0.058855616 -0.075527735
000160 64 9c 84 3d 13 3a 52 bd 58 6a ce bd 33 6a 0a be
       0.06475142 -0.051324915 -0.10078877 -0.13517074
000170 a1 aa 2b 3d ce 4a c2 3d d4 54 a1 bc d2 6b 7b 3d
       0.04191077 0.09486924 -0.01969377 0.061382122
000180 72 61 c7 bb fb 20 bf bd 60 4b e3 3d df 8a d9 3d
       -0.0060846144 -0.093324624 0.11098361 0.10622191
000190 29 3b 0d bd 20 ac 1a be 93 e8 93 bd e1 83 1c be
       -0.034480248 -0.15104723 -0.072220944 -0.15284683
0001a0 80 e0 c1 3d 3e 46 c3 bc 50 48 da 3d 97 05 15 bd
       0.09466648 -0.023837205 0.10658324 -0.036382284
0001b0 70 6f cf bd 5c f0 11 3e f5 88 b1 bc 81 59 86 3d
       -0.10128677 0.14251846 -0.021671752 0.0656004
0001c0 74 6f 3c 3d b1 73 bf 3d d4 10 9e bd 6f 44 05 3d
       0.046004727 0.09348238 -0.077180535 0.032535966
0001d0 7d 4c 8e bd 03 5c 2e bd 23 2a d4 bc d4 15 bd 3a
       -0.06948183 -0.042568218 -0.025898999 0.0014426061
0001e0 40 3d c8 bd 16 a2 0e 3e c5 a0 b9 3d e9 86 63 3d
       -0.097773075 0.13929018 0.090638675 0.055548582
0001f0 43 3d a9 3d 4b 4f af bc e9 53 34 3d 9d 95 9e bd
       0.08263638 -0.021400115 0.044025335 -0.0774338
000200 0b 62 0b 3e ff 00 f2 3d b7 0b 64 bc 91 8e a4 3d
       0.13611619 0.11816596 -0.013918809 0.08035005
000210 69 10 09 be 12 56 db 3d 1e 65 87 bd 5e 2e f0 bc
       -0.13385166 0.10709776 -0.066110834 -0.029318985
000220 e8 38 2f bd 77 f4 0e be 5e e3 60 3d 97 aa fa bc
       -0.04277888 -0.13960443 0.054904334 -0.030598922
000230 34 ad c5 bb f8 02 0a 3e 7b 28 e4 bd d4 1b 1a 3e
       -0.0060326103 0.13477695 -0.111405335 0.15049678
000240 92 d2 cc bd f4 28 19 3e d2 c3 bb 3d 52 42 b7 bd
       -0.100011006 0.14957029 0.09168209 -0.089481965
000250 05 e2 75 3d a3 3c 6c bd 9e ee 00 be e0 02 11 be
       0.060030002 -0.057675015 -0.12591025 -0.14161253
000260 5b b1 b0 3d a9 23 6b 3d 0d b5 9d 3d 09 38 fa bd
       0.08627578 0.057407055 0.07700548 -0.12217719
000270 27 fc b9 3d 98 3d 8e 3c d8 61 19 3e c9 fa df 3c
       0.09081297 0.017363355 0.1497873 0.027341263
000280 f6 19 3a 3d c3 2a 17 3c 38 0c 9c 3d 34 37 f5 3d
       0.045434915 0.009226504 0.07619518 0.1197342
000290 4f 59 c4 bd 20 ab 40 3d 38 ea d6 bd fa 21 b8 bd
       -0.09587347 0.047038198 -0.104938924 -0.089908555
0002a0 f1 88 07 3e f8 48 b7 bc 1e 26 3c bd 60 37 82 3c
       0.13235833 -0.022373661 -0.04593479 0.015895545
0002b0 1a 8a 42 bd 82 68 ab bd 63 63 19 3e b1 d6 81 3d
       -0.047494985 -0.08369543 0.1497932 0.06339777
0002c0 7f 50 ec bd 03 fd 0c 3e 49 3f c9 3c af 85 e4 bd
       -0.11538791 0.13768391 0.02456631 -0.111583106
0002d0 4a 53 59 bd 3a c6 06 3e f3 b9 b3 bd 14 72 f0 3d
       -0.053057946 0.13161555 -0.087757014 0.11740509
0002e0 a2 ef a9 3c 4a f9 e6 bd 94 f4 e4 3d b8 9f 92 bd
       0.020744149 -0.11278017 0.11179462 -0.0715937
0002f0 eb 76 b7 3a ed ff fc bd 84 2c 82 bd f6 e7 8a bd
       0.0013997232 -0.123535015 -0.06356147 -0.06782524
000300 eb a4 cd bc ae 53 77 bc 5b 99 0e 3e 73 e3 aa 3d
       -0.025103053 -0.015095634 0.13925688 0.08344164
000310 dc 16 f0 bd cc bb 15 3e 5c 3f db 3c 9c a1 b5 bd
       -0.1172311 0.1462242 0.02676361 -0.08868715
000320 a2 33 1b 3e ff da cd 3d 38 0e c2 3d 61 09 fb 3c
       0.15156415 0.10051536 0.09475368 0.03064412
000330 e5 d8 89 3d 1f 6c a1 3b 78 22 9c bc 7a 63 91 bb
       0.067308225 0.004926219 -0.019059405 -0.0044369074
000340 3a c1 6f 3d 10 70 43 3c 1c c6 01 be 8b b2 30 bd
       0.058533885 0.011928573 -0.12673229 -0.04313902
000350 2b 9a 07 be fb e0 d7 3d 32 9c b9 3d 4e 22 83 3d
       -0.13242404 0.105409585 0.09062995 0.064030275
000360 ee 4c 1b 3e 2c df 0f be 64 8d c7 bd 8d 38 0f 3e
       0.15166065 -0.14049977 -0.09743765 0.13986416
000370 0d c3 c4 bd a2 3a 53 bb 76 79 f1 bb a5 a3 10 be
       -0.096075155 -0.0032230993 -0.0073692156 -0.14124925
000380 73 5e 16 3d 38 fa d0 3d 01 85 8a 3d 2d e7 14 3e
       0.036711168 0.102039754 0.0676365 0.14541312
000390 3b 75 bf bc 4f d1 99 3a 55 7b 55 3d 54 be 96 3d
       -0.02337133 0.0011735352 0.05211957 0.07360521
0003a0 26 64 c3 bd a6 61 15 be b4 51 a6 bb de b5 ea 3d
       -0.09540586 -0.14588031 -0.0050756577 0.1146047
0003b0 5b 83 0d be 28 8b ef 3d 36 45 17 3c a5 20 71 bd
       -0.1381964 0.11696464 0.00923281 -0.058869023
0003c0 dd 66 18 3e 11 7c 8d bd 85 14 b7 3c f4 f5 01 bd
       0.14882989 -0.069084294 0.022348652 -0.0317287
0003d0 64 16 08 3d b7 f8 75 3d 02 96 cf 3d 4f a8 f5 bd
       0.03322448 0.060051646 0.101360336 -0.11994993
0003e0 b1 05 c8 3b b7 60 15 be b9 59 82 3d e9 4c 78 bd
       0.006104194 -0.14587675 0.063647695 -0.060620222
0003f0 c2 24 a2 3d b8 bd 03 3d 73 8f 17 3e d3 e9 57 3d
       0.07917167 0.03216335 0.14800815 0.052713227

transformer_encoder.layers.0.self_attn.in_proj_bias f4 [192]
000000 23 2c 38 3a 07 87 1a 3a fe cc e0 b8 8a f4 25 b9
       0.000702562 0.00058947544 -0.00010719335 -0.00015826724
000010 e0 03 c1 b9 32 1d bd 39 2d 94 aa b7 8a 96 9d b9
       -0.00036814716 0.0003607064 -2.0334579e-05 -0.00030057534
000020 7d c8 7d b9 f5 81 27 3a ab 20 7a 39 f8 34 eb ba
       -0.00024202648 0.00063899095 0.00023854028 -0.0017944863
000030 84 a1 f3 b9 fa e7 34 39 fe 37 52 3a ab 16 19 ba
       -0.0004646891 0.00017252556 0.0008019208 -0.00058398646
000040 57 d0 c6 39 aa e8 95 b7 16 ab e3 38 30 19 62 39
       0.00037920728 -1.7870527e-05 0.00010856071 0.00021562423
000050 3c 46 b0 b6 cb 83 f5 39 88 86 11 38 9e d2 a4 b8
       -5.253385e-06 0.00046828235 3.4695986e-05 -7.85936e-05
000060 82 ec a3 b9 ab 2e 94 b9 9d 76 0e 39 43 a6 6a b9
       -0.00031265995 -0.0002826353 0.00013586362 -0.00022377916
000070 dd b1 e9 37 29 17 1f b8 e8 68 83 39 89 16 05 b7
       2.7858589e-05 -3.7930124e-05 0.00025064428 -7.932665e-06
000080 a4 82 df 38 3f 10 bc b8 52 b9 a8 37 e6 a1 c6 37
       0.00010657802 -8.967565e-05 2.0113457e-05 2.367883e-05
000090 2f 96 01 39 fe 04 08 b9 b0 dd 91 b8 e2 51 00 38
       0.00012358346 -0.0001297183 -6.955431e-05 3.0593837e-05
0000a0 39 4b 4c 3a 91 b8 f6 39 83 1c 58 ba 36 83 62 ba
       0.00077931915 0.0004705829 -0.00082439947 -0.0008640768
0000b0 31 c4 c0 b9 48 fc c2 38 07 bc 36 ba 3a 81 bf 39
       -0.00036767268 9.297632e-05 -0.0006970767 0.0003652664
0000c0 b6 b0 0a 3a b9 63 c2 b9 76 9e 49 ba 7d 81 d9 39
       0.0005290614 -0.00037076863 -0.0007691154 0.00041485942
0000d0 07 8d 54 b7 6f cc 46 b7 53 2a f8 37 16 28 70 38
       -1.266902e-05 -1.1849318e-05 2.9583613e-05 5.7257792e-05
0000e0 02 65 97 39 71 54 d8 b9 ab e4 94 b9 c7 14 e1 39
       0.0002887622 -0.00041261644 -0.0002839913 0.00042930825
0000f0 c0 f0 1b b9 8b 4d 16 ba 03 02 f8 b9 e2 dc 0a 3a
       -0.00014871638 -0.00057336007 -0.00047303745 0.00052971963
000100 e6 a8 b3 b9 cc 6c af 39 8a bd 8d b9 03 48 1d ba
       -0.0003426738 0.0003345966 -0.00027034833 -0.0005999805
000110 04 73 a5 b9 04 fd 38 39 32 64 08 ba fd 52 3c b9
       -0.00031556946 0.00017641863 -0.00052029185 -0.00017959993
000120 aa 90 fd b9 ae fc 01 3a 45 72 03 3a 1b e2 fe ba
       -0.00048363704 0.00049586117 0.0005014281 -0.0019446047
000130 c1 06 54 ba 4c 8c 96 39 b4 4d 00 ba 32 fc 7f ba
       -0.00080881646 0.0002871476 -0.0004894391 -0.0009765058
000140 db c9 69 b9 e5 ef 9f 39 54 49 28 39 58 52 87 38
       -0.00022295809 0.0003050558 0.00016049045 6.452639e-05
000150 c3 ac 41 39 ae 61 a1 b8 2e 45 56 b9 be b6 f2 39
       0.00018470273 -7.6952725e-05 -0.00020434402 0.0004629399
000160 df e3 22 b7 8a 7d 08 3a e6 c6 01 3a 14 71 da 36
       -9.709008e-06 0.0005206695 0.00049505976 6.5100703e-06
000170 84 14 00 3a 24 73 c3 39 a8 3f 68 b9 90 40 15 ba
       0.00048858696 0.00037279085 -0.00022148958 -0.00056935195
000180 ca d3 2b 39 7f 90 8d b9 33 f1 79 b9 c0 a1 3d 3a
       0.00016386728 -0.00027001274 -0.00023836344 0.00072338805
000190 ff c5 e5 b8 e9 4f 4d 3a 80 56 93 38 dd 22 6b 38
       -0.000109564506 0.0007832037 7.025618e-05 5.6060835e-05
0001a0 08 04 c3 3a dd 0a 36 3a 65 c6 77 ba da 49 30 ba
       0.0014878521 0.0006944368 -0.00094518653 -0.0006724872
0001b0 a3 ef 28 3a 9a e9 c6 ba e7 c7 5b 3a 26 5a 8b 3a
       0.00064444 -0.001517582 0.0008383975 0.0010631725
0001c0 ab 15 13 3a 51 db 08 38 38 20 21 b9 22 03 1d 3a
       0.0005610834 3.262918e-05 -0.00015366159 0.00059895415
0001d0 52 6c c1 39 09 2d cb b9 e9 e1 6c 39 57 44 9f 39
       0.00036892534 -0.0003875273 0.00022590872 0.0003037776
0001e0 57 c7 b9 3a 9b ed 26 3a 92 98 1b ba fa 64 7f 3a
       0.0014173788 0.00063678034 -0.00059355155 0.00097425247
0001f0 7f 68 90 ba 67 7a ac 39 de 11 aa 37 8d fc 16 3b
       -0.001101747 0.00032897593 2.02739e-05 0.0023038716
000200 74 49 23 bc 5b 94 10 bc 98 d8 0d 3c e8 81 89 3b
       -0.009966243 -0.008824433 0.008657597 0.0041963942
000210 60 b3 19 3c 38 9d 0e bc 24 03 19 3c 05 31 0c bc
       0.009381145 -0.008704476 0.009339128 -0.008556609
000220 ab 6c b2 bb 7f d5 0a bc 47 4a e8 bb ab 94 58 bb
       -0.005445083 -0.008473753 -0.0070889327 -0.0033047597
000230 68 0a 08 bc 49 fd 1e 3c 01 a9 10 bb 16 c1 28 3c
       -0.008303262 0.009703943 -0.002207339 0.0102999415
000240 c2 68 0c bc ca 4c 23 3c 7f cf 98 bb 88 50 11 3c
       -0.008569898 0.009967038 -0.0046634073 0.008869298
000250 dc 0b 9f bb fd 9a 10 bc d3 1f f5 bb 20 e3 36 3c
       -0.0048537087 -0.008826015 -0.0074806004 0.011162549
000260 d0 16 a3 bb 69 7d 4a bb 27 72 0f bc 36 8b 7e 3b
       -0.0049770847 -0.0030897504 -0.008755243 0.00388403
000270 73 a5 02 bc 85 c4 f4 3b 08 de 23 bc 4e e5 f4 bb
       -0.0079740165 0.007469716 -0.010001667 -0.0074736243
000280 c2 1a 15 bc d1 ff 8a bb 96 62 03 bc 7f be fd 3b
       -0.009100618 -0.0042419215 -0.00801911 0.007743656
000290 b0 f7 13 bc 87 e2 d2 3b 92 60 e5 3b ac e6 12 bc
       -0.009031221 0.0064356956 0.0070000375 -0.008966129
0002a0 2a ac 0f bc 1e 0e 08 bc 8e 11 f2 3b cb 27 1a bc
       -0.008769074 -0.008304147 0.0073873466 -0.009408901
0002b0 a1 12 1d bc dd 88 f0 3b a4 86 1a 3c 5a 05 80 3b
       -0.009586961 0.007340534 0.009431515 0.003906888
0002c0 7a 92 9e 3b 1e 01 1b 3c fa 33 f7 bb 92 e1 0d bc
       0.0048392387 0.009460716 -0.007544038 -0.008659737
0002d0 0d 0d 24 3c d4 8c 3b 3a c7 dc d4 3b c0 09 22 3c
       0.010012877 0.0007154469 0.0064960453 0.00989002
0002e0 c5 6d a5 3b ca 7d ef bb 80 cc a7 ba 81 17 e3 3b
       0.005048486 -0.0073086964 -0.0012802035 0.006930292
0002f0 b1 8a 14 bc 9b 26 04 bc 12 6d d4 3b 4f 03 7c 3b
       -0.00906627 -0.008065845 0.0064827288 0.003845412

transformer_encoder.layers.0.self_attn.out_proj.weight f4 [64, 64]
000000 ec 74 3e bc 4a ad f5 bd 16 39 13 3d 98 ff b9 3d
       -0.011624556 -0.11995943 0.035943113 0.09081954
000010 a4 77 37 bd a9 e8 09 bb 7a ad fb bd 76 7d 7a bd
       -0.044791833 -0.0021043217 -0.122889474 -0.061154805
000020 04 98 a8 3c 69 8c 28 bd fc 50 de bc 54 f9 0f 3d
       0.0205803 -0.04114953 -0.027138226 0.035149887
000030 8e db 88 bd 1d 64 be bd f1 1b e6 3d 76 aa 48 bd
       -0.06682502 -0.09296439 0.11235798 -0.04899069
000040 07 e3 bb 3d aa 5c d5 3d b7 fb c1 3d d2 70 96 3d
       0.091741614 0.10418065 0.09471839 0.073457375
000050 08 64 dd 3d e8 31 e1 3c 6a 06 dc 3d 63 de 84 bd
       0.10810095 0.027489617 0.10743411 -0.064877294
000060 3c af 21 3d 5f d6 f5 bd d9 51 22 bd 07 58 91 3b
       0.039473757 -0.12003779 -0.039628837 0.0044355425
000070 5b 1a d9 bd 8e dd 05 bd af 30 d0 3d 6a 4c c9 3b
       -0.1060073 -0.032681994 0.10165536 0.0061431425
000080 5a f7 08 3c 83 de 2d 3d 56 10 da 3d 8e c0 f4 bd
       0.008359754 0.04244853 0.10647647 -0.119507894
000090 c5 6c 04 bd 51 41 ef 3d b1 24 e9 3d 6c 5d 3b 3d
       -0.032330293 0.1168238 0.113839515 0.04574339
0000a0 dd f2 d2 bd dc 79 67 3d df c6 a6 bd 00 d0 ae bd
       -0.10300229 0.0565127 -0.081434004 -0.085357666
0000b0 1b b5 cb bd c7 ae 65 bd 75 8e bc bc a9 45 88 3b
       -0.099466525 -0.056074884 -0.023017148 0.0041586948
0000c0 99 70 df 3d d1 f9 d2 3b 7f 15 80 3d 70 fd 5e bd
       0.10910148 0.006438472 0.062541 -0.054440916
0000d0 83 af 70 bd 7e 7a 75 bd 33 f3 a4 3d b7 00 5f bd
       -0.05876113 -0.05993127 0.08054199 -0.05444404
0000e0 55 fb bd bd 7c 88 48 bd f1 5e fe bc d6 df 6f 3d
       -0.092764534 -0.048958287 -0.031051131 0.058563076
0000f0 68 50 9e 3c fa 6f 09 3d 59 f1 cb 3d 7f f9 30 3d
       0.01932545 0.033554055 0.09958143 0.043206688
000100 0b fd 4e 3d f6 c0 74 bd 88 a7 9f 3d 2e 4d df bd
       0.05053429 -0.059754334 0.07795626 -0.10903393
000110 a1 8d 69 3d 92 fe 31 3d 9e 44 53 bd 65 20 e7 bd
       0.057019833 0.043455668 -0.05157911 -0.11285476
000120 26 b6 d7 bd 59 53 94 bc 65 d7 c1 3d 39 34 d4 3d
       -0.10532789 -0.01810615 0.09464911 0.10361523
000130 a7 5e a4 3d c2 6f da 3d 72 80 99 3d 38 ae 4c 3d
       0.08025866 0.10665847 0.07495202 0.049970835
000140 7a 08 48 bd a6 54 f6 bd fb 4b 2c 3d 38 b6 c2 3d
       -0.04883621 -0.12027864 0.042064648 0.09507412
000150 56 35 b1 3d 30 8e 90 bd eb 98 00 3d 8a cb b9 bb
       0.08652751 -0.0705837 0.031395834 -0.0056700157
000160 a2 57 38 3a 86 cb 9c bc 65 e4 f0 bd 04 17 67 bc
       0.0007032101 -0.019140016 -0.11762313 -0.014104608
000170 75 6d f2 3c fd 74 3f bd ad b7 c6 bc 9a e7 4e bd
       0.029593209 -0.046742428 -0.024257505 -0.05051384
000180 1e 5c 77 3d 4a fc f3 bb dc 83 ff bc 64 8e d4 bd
       0.060390584 -0.0074458467 -0.031190805 -0.10378721
000190 c9 aa 34 3d 4f 51 e7 3d 24 68 e3 3b f7 77 cb bd
       0.044108186 0.11294805 0.0069399048 -0.09934991
0001a0 05 da a2 3c db 5a 66 bd 29 21 90 bd 5d bd 79 3d
       0.01987935 -0.05623899 -0.07037575 0.060971607
0001b0 ff 92 ea 3c db 13 fa bd b9 ab 29 3d 41 81 89 3c
       0.028634546 -0.122108184 0.041423533 0.016785266
0001c0 04 1b a8 3c 81 9e 6d 3c 37 c5 3e 3d 4b b0 3a 3d
       0.020520695 0.014503122 0.046574797 0.045578282
0001d0 08 c3 ef 3d da ce bc bd 82 d4 c4 3d e0 a3 21 bb
       0.11707121 -0.09219141 0.09610845 -0.0024664328
0001e0 ec b1 89 3d e2 34 0b 3d 23 b5 d3 bd 58 15 5b bd
       0.06723389 0.03398598 -0.103372835 -0.05348715
0001f0 77 bf cc bd 4f 50 ee bd 9f d0 fd bd ea 24 95 bc
       -0.099974565 -0.116364114 -0.12393307 -0.018206079
000200 16 24 87 bc 9c 78 f9 3d 3c e7 67 bd c4 9d b7 bd
       -0.0164967 0.121812075 -0.056617007 -0.08965638
000210 ef 63 ed 3d 4e 4d aa 3d be 09 fd bd 20 aa 84 3d
       0.115913264 0.08315526 -0.12355374 0.06477761
000220 4c af 35 bb 34 10 c6 bc 7d b4 44 3d f2 0c f9 3d
       -0.0027722893 -0.024177648 0.04802369 0.12160672
000230 50 1e 35 3d 03 2c 3f bd 4b 12 e6 bc 76 73 ea 3d
       0.04421836 -0.046672832 -0.028084895 0.11447804
000240 22 5e ff bd 19 bc 1b bd 26 a6 ed 3d 30 e5 88 bd
       -0.12469126 -0.03802118 0.11603956 -0.06684339
000250 a8 47 80 bc 61 9b a3 3c bf bd 97 bd ce 70 4c 3d
       -0.015659168 0.019971551 -0.07409238 0.049912266
000260 d3 21 aa 3c 2f fa 92 bd ae 5b e0 3d 79 31 e5 bd
       0.020768082 -0.07176625 0.109549865 -0.11191077
000270 3d 8f ca 3d 12 b3 77 bd 30 c6 b2 bd 0f a0 76 3d
       0.09890602 -0.06047351 -0.087292075 0.060211238
000280 a3 86 98 bc 3e 4b 14 3c 2b d6 d6 bb 0e 9e c5 bd
       -0.018618887 0.009051142 -0.0065562925 -0.09649287
000290 87 9f ba bd 17 9b 57 3b b5 d3 c2 bd 30 10 2b ba
       -0.09112459 0.0032898837 -0.09513036 -0.00065255444
0002a0 62 61 14 3a 8e 33 94 3c ab 92 59 3c 14 57 f9 3d
       0.0005660263 0.01809099 0.013279597 0.12174812
0002b0 fa 40 c5 3d 1f 25 b5 3c 64 27 a3 bd 81 81 ab bd
       0.09631534 0.022112427 -0.079664975 -0.0837431
0002c0 ec 80 4d 3b 72 f2 ae bd e7 2d 44 3d 49 08 02 3c
       0.003135736 -0.085423365 0.04789534 0.007936546
0002d0 54 5c af 3d a0 0a 46 bd 99 0a 05 bd 1f 31 f1 3c
       0.08562532 -0.048349977 -0.03248081 0.029442368
0002e0 03 83 1c 3d 29 9d 43 3b 0b b6 cf 3d f4 d5 30 3d
       0.03821088 0.0029848313 0.10142144 0.04317279
0002f0 47 22 da 3d 3c ce 91 3d 00 8a a6 bc f3 42 62 3c
       0.10651069 0.07119414 -0.020329475 0.013809907
000300 41 c6 e7 3d be de e8 3a 27 b9 d7 bd e5 03 8b bd
       0.11317111 0.0017766578 -0.10533362 -0.06787852
000310 b9 27 e8 bb 8a 58 22 bd 88 d8 b3 bd fe 22 49 bb
       -0.0070848134 -0.03963522 -0.087815344 -0.0030691023
000320 ee a4 8a 3d 54 15 61 3d 5a 56 cb 3d a9 15 3a bb
       0.06769739 0.05495198 0.0992858 -0.0028394258
000330 32 43 05 bd 5c 20 e8 bd f0 1d 93 bd 9b 82 2b bd
       -0.032534786 -0.11334297 -0.071834445 -0.041872602
000340 33 d8 d3 3d 60 ba a1 bd 54 d3 11 bd 0d 4d ad bd
       0.10343971 -0.07896876 -0.03560193 -0.08461962
000350 15 6e c3 bd 5e 8a e1 bd a7 47 de 3d 2f 83 ae 3d
       -0.09542481 -0.110127196 0.1085351 0.08521115
000360 1b b9 fc bd 53 49 c3 bc b2 06 29 bd 2b c4 ce 3d
       -0.123399936 -0.023838675 -0.04126615 0.1009601
000370 cc fc a7 3d 78 69 b7 bd 50 cb fa 3d 0a 0f cf 3d
       0.08202514 -0.089556634 0.1224581 0.1011029
000380 91 c9 6a bc a7 2a 95 3d be 63 94 3c 7e b8 b7 3d
       -0.014330284 0.07283526 0.018113967 0.08970736
000390 44 8b ae 3d 8d d6 35 bd dc a1 f0 bd c4 49 e9 3d
       0.085226566 -0.044394065 -0.11749622 0.11391023
0003a0 8f f0 2c bd d9 fe de 3d b6 26 c3 bd a3 8b 45 3d
       -0.042221602 0.10888452 -0.09528868 0.04822887
0003b0 c7 29 d1 3d b3 ef 1b bd c9 09 eb 3d aa 14 51 3d
       0.102130465 -0.038070392 0.11476476 0.051045097
0003c0 8f 84 94 3b d1 cc 0a 3d 5f e5 82 ba 56 b3 a2 3d
       0.004532404 0.033886734 -0.0009986571 0.07944362
0003d0 e5 e0 59 3d 31 5e 56 3c 91 da c4 3d 33 aa f3 3d
       0.05319299 0.01308398 0.09612001 0.11897697
0003e0 bb f9 44 bd e9 58 c4 bb 7b e4 2e bc 84 a0 f3 bd
       -0.048089724 -0.005992044 -0.010674591 -0.1189585
0003f0 65 5a 8a 3a cc f7 e6 3d 0c d3 c2 bd b9 df 3a 3d
       0.0010555504 0.11277732 -0.0951291 0.045623515

transformer_encoder.layers.0.self_attn.out_proj.bias f4 [64]
000000 5d 28 0a bc da 8f 04 bc 7e 8a fa bb 36 f2 10 bc
       -0.008432475 -0.0080909375 -0.007645904 -0.00884681
000010 40 8f f4 bb 22 a7 b0 bb 07 ea f7 bb 14 32 0e bc
       -0.007463366 -0.0053910175 -0.00756574 -0.008678932
000020 e6 b1 e1 bb 52 19 1f bc 22 d0 21 bc f0 43 23 bc
       -0.006887662 -0.009710627 -0.009876283 -0.009964928
000030 6f fd 23 bc 36 29 21 bc 92 b3 2a bc cc 16 21 bc
       -0.010009154 -0.009836486 -0.010418789 -0.009832095
000040 ed 4c 12 bc fd 48 a6 39 13 ba 04 bc 59 ab 02 bc
       -0.008929473 0.00031716368 -0.008101004 -0.007975423
000050 89 af 1c bc b4 2f 0a bc ec 9a f5 bb 16 bc 0a bc
       -0.009563335 -0.008434225 -0.007495275 -0.008467695
000060 b6 9c 12 bc 22 e7 25 3c 70 dc 0e 3c 4f 48 09 3c
       -0.008948496 0.010125907 0.008719549 0.008379056
000070 cc 7f 03 3c e3 9a 13 3c b5 7d 0d 3c 28 d4 0c 3c
       0.008026075 0.009009096 0.008635928 0.008595504
000080 03 fe 13 3c 7d 3a fc bb f3 74 0a bc 08 42 f9 bb
       0.009032729 -0.007697402 -0.008450734 -0.0076067485
000090 3e 6e fe bb f2 3d 24 3b 24 51 17 3c e8 ce 22 3c
       -0.0077646067 0.0025061336 0.009235654 0.009937026
0000a0 47 56 0f 3c 55 63 18 3c 65 32 2a 3c 64 55 02 3c
       0.008748597 0.009301026 0.010387992 0.007954929
0000b0 f3 b1 19 3c 45 e4 10 3c c8 36 94 3b 8a c1 15 3c
       0.009380805 0.008843486 0.004523132 0.009140382
0000c0 aa fb eb 3b 33 3a 24 3c 18 4f 06 3c 25 66 fb 3b
       0.0072016316 0.010023641 0.008197568 0.0076720887
0000d0 5b 7c fe 3b 62 38 18 3c 3a b8 09 3c 8f 0f c6 bb
       0.007766289 0.009290786 0.008405739 -0.006044335
0000e0 2e bf d8 bb 14 fc 81 39 b4 0e 55 bb 77 c2 3d 3b
       -0.0066145873 0.0002479261 -0.0032509984 0.0028955021
0000f0 02 7c 80 3b f6 aa 19 3c 12 08 27 3c 8d cf 0b 3c
       0.003921033 0.009379139 0.010194795 0.008533371

transformer_encoder.layers.0.linear1.weight f4 [512, 64]
000000 5a 42 40 3d 39 e6 61 bc c1 6d 12 3d 86 8f a7 3d
       0.046938278 -0.0137877995 0.0357492 0.08181672
000010 78 e5 c4 3c ed 33 e4 bd f3 76 cd 3d 4e cc a7 bd
       0.0240352 -0.111427166 0.100324534 -0.08193265
000020 f1 99 2e bc 9a d0 9b 3c 0e fd 92 3d 88 31 4a bb
       -0.01065682 0.019020367 0.071771726 -0.0030852277
000030 d6 75 55 bd e2 97 da bc 51 1b 3c b9 56 c1 9d 3c
       -0.05211433 -0.026683751 -0.00017939253 0.019257229
000040 a0 94 f3 bd d2 f1 3f bd 31 63 ae bc b9 36 87 3c
       -0.11893582 -0.046861477 -0.021287533 0.016505586
000050 c7 d7 9f bc 08 c5 a6 bd 50 d2 36 3d cd a0 b3 bd
       -0.01951207 -0.081430495 0.044634163 -0.08770905
000060 75 11 ac bd 2f b9 f1 3d 38 0d 9d bd 39 df b1 3d
       -0.08401767 0.11802899 -0.07668537 0.086851545
000070 d3 a4 2a bd 7c c2 ae 3d a9 82 8b 3d 29 11 95 bd
       -0.041661095 0.08533189 0.06812031 -0.07278664
000080 9b 72 11 bd 02 c7 ef 3d 46 a0 50 3c 40 1a af 3d
       -0.035509687 0.117078796 0.012733525 0.08549929
000090 6c e9 b9 3d 4d 55 42 3d 4a de 4b 3d 07 52 6f bd
       0.09077725 0.04744463 0.04977254 -0.058427837
0000a0 31 53 ca 3c 1b c6 96 bd 37 43 5e bd ea 6b cf bc
       0.024697872 -0.07362004 -0.05426332 -0.025320012
0000b0 4a 7f 62 bd 5b 31 61 3b ff 66 ab bc 31 db 06 3d
       -0.055297174 0.0034361694 -0.020923136 0.03292388
0000c0 d3 93 ad bb 00 cd 72 bc 07 d6 ce 3d 48 04 cd bc
       -0.005297163 -0.014819384 0.10099416 -0.025026456
0000d0 e1 9e d0 bd 07 09 1f 3d 72 a6 9d bd 8e d9 47 bd
       -0.10186554 0.03882697 -0.076977625 -0.04879146
0000e0 25 04 9b 3d 99 ec 0d bd 4c 23 82 3c cc 78 da 3c
       0.0756915 -0.034649465 0.015885971 0.026668929
0000f0 dc aa 06 bd b1 7a 57 bd cb 49 3b 3d 8a c0 2f 3c
       -0.032877788 -0.052607242 0.04572467 0.010727057
000100 a4 b8 54 bd 63 2d de 3d df 51 5a bd cd 0a a3 bc
       -0.0519339 0.108485006 -0.053300735 -0.019902611
000110 e2 ec ac bd 59 32 e5 bd 30 7b 82 3d f7 b4 eb 3a
       -0.08443619 -0.11191244 0.063711524 0.0017983009
000120 60 de a3 3d 96 37 ae bd 54 3d e6 3d 5a 8c dd 3d
       0.08001399 -0.08506696 0.11242166 0.108177856
000130 c8 df b3 3d c3 86 cc bd 8e e9 54 bd d4 31 26 bd
       0.08782917 -0.09986641 -0.051980548 -0.040574864
000140 fa 19 2c bc 9e 8e a3 3c 96 bb c0 bc 1f 9d a7 bd
       -0.01050424 0.019965466 -0.023526948 -0.08184265
000150 4e 50 d8 3d df 95 f7 3d 60 9e 75 3d 35 5a 4a bd
       0.10562192 0.120891325 0.05996549 -0.049402434
000160 99 be e1 3c a9 18 8d 3d 2d 3e 8c 3d fb d8 0f bd
       0.027556704 0.06889469 0.068477966 -0.035119038
000170 8d c3 fd 3d 01 4e 81 3d 63 3a f7 3d 1b 45 ee 3c
       0.12390814 0.06313706 0.12071683 0.029085686
000180 65 a6 e6 bd 95 6b d4 bd 94 e7 6e bd 04 1b 2a 3d
       -0.11262206 -0.10372082 -0.05832632 0.04152967
000190 be fb eb bd 10 11 f6 3d 2b ec 8b 3d 60 bf 06 3d
       -0.115226254 0.12014973 0.06832155 0.032897353
0001a0 cc e4 87 3d 8f db 89 3d 29 05 d3 bd f6 95 cf 3d
       0.066354364 0.067313306 -0.103037186 0.10136025
0001b0 2d b3 65 bd b2 34 b0 3d da 15 68 3d 18 a0 a4 3d
       -0.05607908 0.08603801 0.056661464 0.08038348
0001c0 eb 05 87 bc 94 85 a8 3c 7e 87 ae 3b d4 f5 c4 3d
       -0.016482314 0.020571508 0.0053262105 0.096172005
0001d0 23 e9 b3 3c cb 77 e4 3c 98 39 04 3c 5c 0c f1 bd
       0.021961754 0.027889153 0.008070372 -0.117699355
0001e0 9d 3e 13 3d 81 0c 18 bd 0c e9 00 3d 9c 54 b1 bd
       0.035948385 -0.0371213 0.03147225 -0.08658716
0001f0 52 66 0c bc 53 d7 f6 bd 48 15 ea 3c f7 b3 5d bc
       -0.008569317 -0.120527886 0.0285746 -0.0135316765
000200 04 8a f2 3c 14 ee b8 bd f2 15 49 bd 94 b3 7a bd
       0.029606827 -0.09029785 -0.049093194 -0.061206415
000210 b6 a9 a1 bc 1c da 35 bd dc 89 1d bd 04 54 a7 3d
       -0.019734245 -0.04439746 -0.03846155 0.081703216
000220 cf 09 4a 3d 8c d5 be bd af 5a d5 3d 35 b6 cd bc
       0.04932576 -0.093180746 0.10417687 -0.025111297
000230 54 48 99 3d 5f 5e f6 bd 75 1b 00 3e c6 60 9a bc
       0.074844986 -0.120297186 0.12510474 -0.018844973
000240 c3 95 97 3d af 2d b7 3d 8e 62 8f bc 60 2b d5 3d
       0.07401612 0.0894426 -0.01750305 0.10408664
000250 bb 37 79 3d 9d b0 c2 bd e8 56 a5 3d 47 ae ad bd
       0.060844164 -0.095063426 0.08073217 -0.084805064
000260 87 87 b5 bd ca 84 8f 3d b0 6d 8b bd 39 c4 3a 3c
       -0.088637404 0.070077494 -0.068080306 0.011399322
000270 fc ae b1 bd 76 86 c5 bd ff 5e f7 bd 98 3b 2e bc
       -0.08675954 -0.09644787 -0.12078666 -0.010634325
000280 45 f5 84 bb 3d af 82 3d 97 1c 9b bd a0 c7 99 3d
       -0.0040575587 0.0638108 -0.075738125 0.075087786
000290 24 7e 41 3d 3a b6 0f 3d fb 67 86 3d 32 05 94 bd
       0.047239438 0.035085894 0.065628015 -0.072275534
0002a0 b1 91 33 bd 3d 97 8e 3c 15 47 02 bd ca 3c cc bc
       -0.043840114 0.0174061 -0.03180607 -0.02493133
0002b0 2e 26 86 3d 69 ff cd bc a6 b1 78 bd d3 de 7b 3d
       0.06550251 -0.025146203 -0.060716294 0.0614918
0002c0 98 82 12 3d 46 6d 29 bd a6 59 6f 3d 1e 5d 0f bd
       0.035769075 -0.041363977 0.058435105 -0.035000913
0002d0 db 08 88 3d f6 0d e5 bd 86 8e bc bd 8f 51 a2 bd
       0.06642314 -0.111843035 -0.09206872 -0.07925712
0002e0 27 fb f5 3d 57 d2 66 bc bb 0e 21 bd bf 48 d8 3d
       0.12010794 -0.014088235 -0.03932069 0.1056075
0002f0 d3 59 9a 3d f4 60 1b bd f5 74 fc bd 45 e6 31 3d
       0.07536664 -0.03793426 -0.12326995 0.043432493
000300 2b 43 e6 3b 84 d1 ab 3c be 19 ed 3d 07 f1 2e 3d
       0.00702705 0.020973928 0.115771756 0.04271033
000310 2a e3 52 3d 53 89 8b 3c f0 10 18 3d 3b 87 d1 3d
       0.05148617 0.017033255 0.037125528 0.10230871
000320 02 9a 64 3d 19 34 9f 3d 81 17 9d bd c8 d3 d5 bd
       0.055810936 0.07773609 -0.07670499 -0.10440785
000330 fe 10 fb bd 98 cf f1 bd 35 05 b6 bd 58 76 c8 3c
       -0.122591004 -0.118071735 -0.08887712 0.024470493
000340 e8 64 93 bb 6c 66 f9 bc 2f c6 a0 3d d0 35 d1 3d
       -0.004498113 -0.030444346 0.078503005 0.10215342
000350 ed ce cb 3d f4 63 dd bd f1 38 a4 3c a5 ea 8a 3c
       0.09951577 -0.1081008 0.020046683 0.01695759
000360 87 0e 98 3d 09 6c c2 3d ff 4a c2 3d 8f c5 04 3d
       0.07424646 0.09493262 0.094869606 0.03241497
000370 ed 30 f0 3d 53 ca e5 bd 06 dd 74 3d 00 4c 5f 3d
       0.11728082 -0.11220231 0.059781097 0.05451584
000380 fb fe a7 bd 89 bf 99 3d 6f e2 7d bd 4c a0 cd bd
       -0.082029305 0.075072356 -0.061983522 -0.1004034
000390 42 d7 38 3c ec 26 c7 3d b5 98 50 3d 28 fb d4 3d
       0.01128179 0.09724221 0.050926883 0.10399467
0003a0 fe dd 1c 3d 69 b8 6b bd 5c 3d f6 bd 05 86 99 bd
       0.038297646 -0.057548914 -0.12023422 -0.07496265
0003b0 cb 5c c2 bd ec a2 d0 3d 59 3d 99 bd f8 9d 89 3d
       -0.09490355 0.10187325 -0.07482404 0.06719583
0003c0 c7 41 c1 ba 2d a3 d3 bc ac ab c8 3d 8a 42 ae 3c
       -0.0014744335 -0.025834644 0.09798369 0.021271963
0003d0 eb 46 b2 3d 19 48 f7 3d 6f 26 1e bd 3f 90 80 3d
       0.08704933 0.120742984 -0.038610872 0.06277513
0003e0 13 f9 9c bd 0a 6b ce 3d 34 fb a3 bc 3a c3 fb bd
       -0.07664695 0.1007901 -0.020017244 -0.12293096
0003f0 f6 7a 23 bb 7b 9b c4 3d 12 30 64 3d d2 9f b2 3c
       -0.0024945117 0.09599968 0.055709906 0.021804724

transformer_encoder.layers.0.linear1.bias f4 [512]
000000 ee 7a bf bd 09 3a 00 be 70 9c ca 3d 28 e3 ca bd
       -0.09349619 -0.12522139 0.09893119 -0.09906608
000010 43 81 af bd 41 de 40 bd 25 37 1a bd 3d 6c 4b bd
       -0.085695766 -0.047086958 -0.037650246 -0.04966377
000020 be df 42 3d d3 37 bc 3d 45 f8 d6 3c 98 a9 d5 3c
       0.04757666 0.09190335 0.026241431 0.026081845
000030 02 da ef 3d d5 fa 93 bb 4c 2e c9 3d aa 2a e3 3d
       0.117115036 -0.0045159855 0.098232836 0.11092122
000040 e2 9a 8e 3d a7 33 9a 3c c4 bd 8e 3d d1 cc 65 3c
       0.06963135 0.018823458 0.06969789 0.014025883
000050 3b ab 50 bb 90 a4 ef 3c bd c6 54 3d ae 96 a7 bd
       -0.0031840343 0.029253274 0.051947344 -0.08183037
000060 30 a7 19 3d b5 17 aa 3d d3 6b bc 3d 42 d0 cf bd
       0.037512958 0.08305303 0.09200253 -0.10147144
000070 da 5d ac 3c 2b 0e fb 3b 7c a6 ce bd 0e b1 92 bd
       0.021040846 0.007661601 -0.10090348 -0.07162677
000080 16 d1 9b 3c 11 1f 2e bd f5 5c 1c 3d 23 5c b4 bd
       0.019020598 -0.042510096 0.03817459 -0.08806636
000090 98 22 06 3e fc 99 04 bd fa 9f a4 3d 36 c8 b2 bd
       0.13099134 -0.032373413 0.080383256 -0.087295935
0000a0 0b 50 61 3c 35 c8 83 bc 1a 5a a9 3d 0a de c8 bd
       0.013751994 -0.016086677 0.08269139 -0.098079756
0000b0 63 ad 68 bc 02 b2 27 3d a0 bd 7e bd 7e 77 d9 3d
       -0.014201495 0.040941246 -0.06219256 0.106184945
0000c0 ad 32 0d 3d 02 db a6 bd 65 a6 3c bd 65 be 43 3d
       0.034472156 -0.08147241 -0.046057124 0.047788996
0000d0 be 2a 09 3d 10 61 fd 3b 77 be c1 3d 90 b6 46 3c
       0.033488028 0.007732518 0.094601564 0.012128487
0000e0 4a b7 3e 3d f5 69 ab ba c3 9b e5 3d 16 63 03 3e
       0.046561517 -0.0013077842 0.1121135 0.12830767
0000f0 19 d8 e5 3d 51 d8 db 3b 3b a1 c9 bc 68 d2 8e bd
       0.11222858 0.0067091365 -0.024613013 -0.069737256
000100 6e ef 43 bd 88 88 eb 3d 54 76 a3 3d 35 98 59 3d
       -0.04783576 0.11500651 0.07981554 0.05312367
000110 f2 ed cf 3d 50 57 6f 3c de d4 ab 3c f4 c3 97 bd
       0.10152806 0.014608219 0.020975526 -0.07410422
000120 ee 5e eb bd f9 6e 48 bd b6 f6 5a bd 34 b2 93 3d
       -0.11492716 -0.048933957 -0.053457938 0.07211724
000130 db 4d 49 bc 76 09 00 3e 38 15 e9 bd 5a d8 5e bd
       -0.012286629 0.12503609 -0.11381 -0.054405548
000140 53 a0 9a 3d 07 4e e1 3d 11 bb 00 3d 87 32 8b bc
       0.07550111 0.11001211 0.0314284 -0.016991867
000150 61 b8 c4 bc 44 7d d3 bd f5 a0 a0 bd 3e 16 fe 3d
       -0.0240137 -0.10326627 -0.078432 0.12406586
000160 0b c9 ad 3d b2 54 ba bd c0 b6 d7 3d c6 7e b4 bd
       0.084856115 -0.090981856 0.10532904 -0.088132426
000170 76 40 a7 bc b0 71 a5 bc 8b b6 c2 bd 5a 1b 71 3b
       -0.02041648 -0.020195812 -0.095074736 0.0036789984
000180 5d dd 67 3c 94 be be bd 40 fc a1 3d 8e 73 90 3c
       0.014151898 -0.09313694 0.07909441 0.017633226
000190 ec 4d a9 3d 81 0e 8d bd 90 c4 f2 3d a8 ee 06 3e
       0.082668155 -0.06887532 0.118538976 0.13176978
0001a0 4e eb 9b 3c cc 1e 4e bd c5 aa 37 3b 66 71 72 bd
       0.0190331 -0.05032234 0.002802537 -0.059190176
0001b0 b3 e7 20 bd ea 38 a8 bd 04 9c 29 bd 6e 20 f5 bb
       -0.039283466 -0.082139805 -0.041408554 -0.0074806726
0001c0 9f 5b af bd 90 15 ee 3c c8 ff d9 bc 03 f3 0f bc
       -0.08562397 0.029063016 -0.026611224 -0.008785966
0001d0 bb b9 98 3c 97 6a b5 3d 08 e7 ca bc 1f 8e 51 bd
       0.01864325 0.08858221 -0.024768367 -0.051160928
0001e0 c5 32 fa 3d 68 b8 bd 3d e2 da dc bd 96 83 da bd
       0.12216715 0.09263688 -0.10783936 -0.10669629
0001f0 f0 fd 1b bd 31 18 00 bd fe c2 a4 bd b0 67 89 bd
       -0.03808397 -0.03127307 -0.08045004 -0.0670923
000200 eb f2 e1 3d 01 80 20 bd c1 dc a4 bc d7 ca 11 bd
       0.11032661 -0.039184574 -0.020124795 -0.035593834
000210 78 44 53 3d 3d c6 9a 3d 76 c8 2d bb c8 47 cf 3d
       0.05157897 0.07557342 -0.002651719 0.10121113
000220 89 2e 2a bd 01 45 67 3c db a1 a3 bd 2f 06 a9 bd
       -0.041548286 0.014115573 -0.07989856 -0.082531326
000230 ed d3 3a 3d ac 5b 8e bd de fb e3 bd ac 0f 47 3c
       0.045612264 -0.06951079 -0.11132024 0.012149733
000240 58 00 d3 3d 6f 47 d5 3d bc a3 9f bc 96 a7 da bd
       0.103028 0.104140155 -0.019487254 -0.10676496
000250 e9 85 fb bd 67 f7 a0 3d 21 26 01 3e 33 0d 89 3c
       -0.12281401 0.07859688 0.12612201 0.016729927
000260 5b da cb bd 09 ed b3 3d 5b 58 f4 3d 30 52 05 3d
       -0.099537574 0.08785445 0.11930915 0.032549083
000270 78 e1 2e 3d c1 61 99 3d 70 84 83 3d f9 8d da bd
       0.042695493 0.07489348 0.06421745 -0.106716104
000280 14 51 d6 bd 9b df 0c 3d a4 b8 83 bd a9 77 12 3c
       -0.10464683 0.034392934 -0.06431702 0.008939662
000290 18 55 9b bd bd b1 59 bd f9 1c 05 3d 37 be 6c 3d
       -0.0758459 -0.05314802 0.032498334 0.05779859
0002a0 11 36 96 bd 7e d8 ff bc c8 4f 4f 3d f5 c2 3e 3d
       -0.07334531 -0.031231161 0.050613195 0.046572644
0002b0 1f 5e c5 bc 26 8a c8 bd a3 7e e6 3d 8d f3 92 3d
       -0.024092732 -0.09791975 0.11254623 0.0717536
0002c0 18 23 6d 3d 88 88 75 bd 7b e3 4a bd 45 71 e3 bd
       0.057894796 -0.05994466 -0.04953335 -0.11105589
0002d0 3a 44 ac bc 37 a7 96 bc fc 60 a8 3d 3b ef 07 bc
       -0.021028627 -0.018390281 0.08221623 -0.008296783
0002e0 ca 5d 07 3e c6 b2 b6 bd e0 45 ce bd 91 e4 ba bc
       0.13219371 -0.08920817 -0.10071921 -0.022814067
0002f0 6e b3 59 3b 6d c1 de 3d 92 f2 2a bb cf d0 c6 bd
       0.003321852 0.10876737 -0.0026084525 -0.09707796
000300 54 3f 1b 3d 7e 47 9a 3d cf 78 bd bd dd 4f 9e bd
       0.03790219 0.07533167 -0.09251558 -0.077300765
000310 41 2c bd 3c 8a c1 e1 bb a8 4c 9b bd 86 7e 71 bd
       0.023092391 -0.0068895267 -0.075829804 -0.058958553
000320 59 49 94 bc 88 57 28 bd c8 c9 99 bd 56 d2 cb 3d
       -0.018101381 -0.0410991 -0.0750919 0.09952228
000330 a6 e0 a1 3a 3c d1 8f 3d 58 2e c3 bd 14 63 03 bd
       0.0012350276 0.0702233 -0.09530324 -0.03207691
000340 6b 2f 19 3d 77 cd 91 bd 55 dc 89 bd 51 95 aa bd
       0.037398737 -0.071192674 -0.06731478 -0.08329261
000350 70 b4 ca 3c 0f 08 08 3e 28 c3 8f bc ce 0e 8d 3c
       0.024744242 0.13284324 -0.017549112 0.017218973
000360 27 fa 94 3c e5 22 2f bc 1d 56 77 3d 6e a0 9c bb
       0.018185688 -0.010689472 0.06038486 -0.004779867
000370 4f 2a 0f bb 6a 73 76 bd 41 79 04 3e b2 c3 f2 3d
       -0.0021845286 -0.06016866 0.1293688 0.11853732
000380 8c 69 07 3d 01 db fd 3c 54 34 d8 3d 9a ed 6f 3c
       0.03305964 0.030988218 0.10556856 0.014644051
000390 e4 8e ca 3c 72 1f 28 bb 1c 09 b9 3d 14 a7 89 3b
       0.024726339 -0.0025653508 0.090349406 0.0042008255
0003a0 b7 ac 2f 3d 11 d8 70 bd 15 4b 9e 3d f8 10 5e bd
       0.042889323 -0.058799807 0.077291645 -0.0542154
0003b0 55 a6 bf bd b0 30 ad bd 44 8f c3 3d 5d 0f cf bd
       -0.09357897 -0.08456552 0.0954881 -0.10110352
0003c0 3e d1 bf bd 94 2d b3 bd 81 15 4c bd 5c 08 d6 bd
       -0.09366082 -0.08748928 -0.049825195 -0.10450813
0003d0 06 7c 04 bd 1a 2d 96 bd 4c e1 27 bc 0e 09 6e 3b
       -0.03234484 -0.07332821 -0.010246586 0.0036321315
0003e0 9d a1 76 bd 60 5b 4d 3c 9d 2c ab bd 51 35 6c bd
       -0.06021272 0.0125339925 -0.08358119 -0.057668034
0003f0 8a 3b 0d 3d ac be ef bd aa 5d 5c 3c 87 66 2a bd
       0.03448061 -0.1170629 0.013450066 -0.041601684
